models/pose_model.tflite (tflite, 88148 bytes, 6 tensors)

arith.constant f4 [7, 64]
000000 6f e9 5f 3e 3c 6f a5 bd 3d db ac be ed c8 ab be
       0.21866392 -0.08077857 -0.33761016 -0.33551732
000010 1e 99 ae 3d 80 77 02 3c a5 c2 04 be fd dd cc be
       0.085252985 0.007963061 -0.12964876 -0.40013114
000020 f4 d4 9c be a5 73 6a 3e a5 bc e9 3c 96 cc 4f 3e
       -0.3063122 0.22895677 0.028532336 0.20292887
000030 26 51 5d be c0 fc b7 bd c6 96 94 3e d2 c7 04 be
       -0.21612987 -0.08983755 0.2902128 -0.1296685
000040 f3 ba 4c 3e 37 54 e7 bd 4b 6c 66 3e 27 b4 9e 3d
       0.1999319 -0.112953596 0.22502248 0.07749205
000050 0b 44 b2 be 6a 7d 17 be 4e 58 21 be 63 02 8c bd
       -0.34817538 -0.14793935 -0.15756342 -0.06836393
000060 65 f3 a5 be 01 0e 85 bd 51 21 af be 11 ba 0e bd
       -0.32412258 -0.06496812 -0.34205106 -0.034845416
000070 48 6e 39 3e 2b 60 4c 3d cb 2d a7 be b2 56 48 3e
       0.18108475 0.0498964 -0.32652125 0.19564322
000080 63 3e a4 3e 8d fe 8f 3e 8e 97 bc be 76 64 62 3d
       0.32078847 0.28123894 -0.36834377 0.05527159
000090 99 6d c0 be a9 73 97 3e 4b 6e 06 3e 3e f3 28 3e
       -0.37583616 0.2958043 0.13128011 0.1649904
0000a0 e5 de ac 3e 28 21 80 3e fe 34 26 3e 7b 7c a8 be
       0.33763805 0.25025296 0.16231152 -0.3290747
0000b0 ad fe 2d be 56 5b 51 3e a4 38 7a be 91 28 5a bd
       -0.16991682 0.20444998 -0.24435669 -0.053261343
0000c0 cf bc 0f 3e bc ec 21 be 9d f4 24 3d 67 80 04 3e
       0.14036869 -0.15812963 0.040272344 0.12939607
0000d0 26 5a b8 be 03 77 d1 3b ef 73 a5 3d 15 6b e5 bd
       -0.36006278 0.006392361 0.08078753 -0.11202065
0000e0 9f 9f 8b be 55 8b 4f be 62 12 1c bd c6 d5 b8 3e
       -0.2727022 -0.20267995 -0.03810347 0.36100596
0000f0 aa ce 08 3e 29 6e 72 bb 00 66 29 3d d3 3e 45 bd
       0.13360086 -0.003699193 0.04135704 -0.048155617
000100 af af 43 be 90 37 d8 3d 61 f4 63 be 26 32 ef be
       -0.19109987 0.10557473 -0.22261192 -0.46717948
000110 fe e6 85 bb 4e 56 77 be 31 15 ea be 9a 0d 82 3e
       -0.0040863743 -0.24154016 -0.45719293 0.25401002
000120 2c cc 89 3e 17 c5 81 3d b6 01 3d 3e e0 76 e7 be
       0.26913583 0.0633642 0.18457684 -0.45207882
000130 e5 4b 94 3c 55 42 05 be 5f 57 95 be bc d7 69 3e
       0.018102596 -0.13013585 -0.2916822 0.22836202
000140 02 33 ba 3e 0f 4d 9f 3c d4 c6 83 be d6 f8 9d 3e
       0.3636704 0.019445924 -0.2573763 0.3085391
000150 37 b1 d7 be 38 9e 4b be 2c e0 64 3e b6 7b 05 be
       -0.42127392 -0.19884574 0.2235114 -0.13035473
000160 9f f9 f6 bc 1b 8a 8e 3e ef e3 98 3d 09 30 a7 be
       -0.030148325 0.2783974 0.0746535 -0.32653835
000170 aa 28 a2 be eb 00 eb 3c b3 11 9d 3d 1b a5 42 3e
       -0.3167165 0.028686961 0.076693915 0.19008295
000180 9a 2d 8d 3c f0 f3 ab bd 63 b4 47 3d 14 b0 bb be
       0.017233659 -0.08396137 0.048756015 -0.36657774
000190 25 65 01 3e e1 e0 b9 3e 64 54 30 3e 94 4a 91 3e
       0.1263624 0.3630438 0.17219692 0.2837721
0001a0 27 b2 f1 be 72 29 35 be 02 5c 71 3c 8c 4e cd bd
       -0.47206232 -0.17691591 0.014731409 -0.10024747
0001b0 06 6f 01 3e bf 36 8e bc 00 7f ed 3c ca 43 84 3e
       0.12640008 -0.01736009 0.028991222 0.2583297
0001c0 72 47 b9 3d c9 22 ae 3e e5 94 20 be de ed 0c 3e
       0.0904683 0.34010914 -0.15681799 0.13762614
0001d0 e2 62 81 3e 37 f4 50 3d cc c6 91 3e 76 38 63 be
       0.25270754 0.05101415 0.28471982 -0.22189507
0001e0 9e f8 6d be 72 c2 9c bd ab dc 10 be d6 3c 17 be
       -0.23239371 -0.07654275 -0.14146678 -0.14769301
0001f0 b5 7f c4 3d 26 68 7f 3e 1a 5b b6 be d1 d6 3b be
       0.09594671 0.24942073 -0.3561638 -0.18343665
000200 c1 04 aa bc b4 52 31 be 57 6c 1c 3e 0f bd 11 be
       -0.02075422 -0.17316705 0.15275703 -0.14232276
000210 be 07 07 be 5a f6 28 be 22 24 bb 3e c4 75 87 be
       -0.13186547 -0.16500226 0.36551005 -0.26457036
000220 b4 b1 88 be bd 7e 9d be e0 fe 8c bd e1 d6 66 3e
       -0.26698077 -0.30760756 -0.06884551 0.22542907
000230 a0 59 96 be e9 7f 9b 3d 7c fd 09 3e a5 99 40 3d
       -0.29365253 0.07592756 0.13475603 0.047021527
000240 f1 f0 9a 3e e7 db 2c 3e 34 e7 82 bc 6e e7 98 3e
       0.3026195 0.16880761 -0.015979387 0.29864067
000250 73 55 c8 3d 98 7b 26 bd d6 f5 2b be 31 ed 3c 3e
       0.09781923 -0.040645212 -0.16792998 0.18449856
000260 36 ae e1 be 4a 5f 71 be f6 93 c6 be 52 96 62 3c
       -0.44078225 -0.23571506 -0.3878476 0.0138297845
000270 de 58 8e bc 60 f8 22 3e 09 74 39 3d 50 7a 9c 3c
       -0.01737636 0.1591506 0.045276675 0.019101292
000280 67 db b1 3e 00 d9 33 be c2 bf 5f 3e db 33 81 3e
       0.34737703 -0.17563248 0.21850494 0.25234875
000290 4e 62 ba bd 93 c5 6d be 6f 4c 8e 3e 81 2b c0 be
       -0.091007814 -0.232199 0.2779269 -0.3753319
0002a0 fc 0d 81 be 0b f2 85 be b9 4f a3 bd 28 e3 35 3e
       -0.25205982 -0.26161227 -0.0797419 0.17762434
0002b0 30 4f 75 3e b3 1b c0 be 98 fd c0 be bc 44 8a 3e
       0.23955989 -0.37521133 -0.37693477 0.27005565
0002c0 2a 2e 3c 3e 4c a7 13 3e 3a 36 20 3e e7 cf 5a be
       0.18376985 0.14419287 0.15645686 -0.21368371
0002d0 92 a5 8c 3e bc 9e 49 be 2f cc ac bd e0 eb 9e be
       0.2747007 -0.19689459 -0.084373824 -0.31039333
0002e0 54 d7 cf be 5d fc a4 3e 8b ff b9 3e 96 95 26 3d
       -0.4059397 0.32223788 0.36327776 0.04067
0002f0 a8 31 3b 3e d4 c3 6c 3e 3d 73 95 be 35 a0 a3 3e
       0.18280661 0.23121578 -0.29189482 0.31958166
000300 87 a8 a7 3a 6f bf 52 3e 58 d5 d6 3e ac f4 52 3e
       0.0012791314 0.20580839 0.41959643 0.20601147
000310 c5 21 3b 3e af 03 bb 3d 26 1c 08 3d 68 94 73 3e
       0.18274601 0.09131562 0.03322997 0.23787081
000320 10 ac 9c 3e 90 0e 41 be f3 5f 11 be 89 b6 34 3e
       0.30600023 -0.18853211 -0.14196758 0.17647757
000330 14 2f 64 be 28 a0 51 3e e4 08 8f 3d 1d 7f 89 be
       -0.22283584 0.20471251 0.069841176 -0.26854792
000340 a3 07 8b be 26 01 5b 3e 22 b1 6d 3e d0 3a dc be
       -0.27154264 0.21387157 0.23212102 -0.4301362
000350 ae bd c1 be d7 ec 5f 3e 24 27 c9 3c cc c7 f9 be
       -0.37840027 0.21867691 0.024554797 -0.48785245
000360 73 d6 b9 be 3d e6 db 3d 3e b7 4f bd 8a d2 ab 3d
       -0.36296424 0.10737274 -0.050711863 0.083897665
000370 95 01 d6 3b f5 26 ae 3e 4f e1 91 be 9e 30 0d 3e
       0.0065309503 0.34014097 -0.2849221 0.13788077
000380 bd a4 ae be 55 e7 c7 be 30 44 30 3d c9 73 eb be
       -0.3411006 -0.3904368 0.04303378 -0.45986775
000390 a7 15 48 be a2 da a6 bd 38 80 f5 be 0e 51 70 3e
       -0.1953951 -0.0814717 -0.47949386 0.2346842
0003a0 40 2c 30 3e 54 82 a4 be 0c 9a b4 be a2 8e 10 3e
       0.1720438 -0.32130682 -0.35273778 0.1411691
0003b0 be 71 83 be d2 5d 4c 3e 2f 70 72 be 97 af d4 3d
       -0.25672716 0.19957665 -0.23675607 0.103850536
0003c0 da 48 52 3e ef 0c 09 be b9 f8 ae 3e 31 ae 8f 3e
       0.20535603 -0.1338384 0.34174135 0.28062585
0003d0 24 d3 a3 be 26 fb a9 be 1f 25 35 3e 37 d9 1c be
       -0.31997025 -0.33199424 0.17689942 -0.15317236
0003e0 d0 75 98 bd d3 1d 2d 3e 48 d7 a4 bd 18 62 81 3e
       -0.07444346 0.16905908 -0.08048874 0.25270152
0003f0 24 41 3d 3e b0 7d ab 3d e2 24 85 be 8b ca 00 3e
       0.1848188 0.08373582 -0.26004702 0.12577264

arith.constant1 f4 [64, 128]
000000 cd 06 06 3e f8 ed 66 bd ea 91 2a be eb 3f 2d be
       0.13088532 -0.05637929 -0.16657224 -0.16918914
000010 00 5f 1e 3a 63 65 d5 bd cb c3 d6 bb a8 6b ca bd
       0.0006041378 -0.104197286 -0.006554102 -0.09883815
000020 4d 49 18 be 38 c8 9e 3c a4 86 23 3d ac 3a 1c 3e
       -0.14871712 0.019382581 0.039923325 0.15256757
000030 25 b3 dd 3c b5 65 02 bd d6 39 d8 3d 94 66 ce bd
       0.027062962 -0.031835277 0.10557906 -0.10078159
000040 ab df 7d bd 32 28 a2 bb b8 f6 80 bd db 9c 85 bd
       -0.061980885 -0.0049486393 -0.06297058 -0.065240584
000050 33 7c 06 3e a2 96 f8 3d f8 8c b6 bd 2a 9d 0e 3e
       0.13133316 0.12138106 -0.089136064 0.13927141
000060 ec 0f cd 3d 62 c6 c3 3d 78 62 85 bd 9c 79 1a 3e
       0.100128025 0.09559323 -0.06512922 0.15085453
000070 02 00 bd bd 84 ad d3 bd e9 82 da 3d ee d5 92 3d
       -0.09228517 -0.1033583 0.106695004 0.0716971
000080 48 f8 9b 3c dc 76 27 bd dd 6c 5c 3d e1 62 2b be
       0.019039288 -0.040884838 0.053814758 -0.16736938
000090 8c f1 1c bd b1 44 78 3d 2d 24 2e be f1 44 9b 3d
       -0.038316295 0.060612384 -0.17005987 0.07581509
0000a0 0e a4 0e be fb 00 3b 3c 6a 71 dd bb f2 28 03 bd
       -0.1392977 0.011413808 -0.006757905 -0.03202147
0000b0 6f af d6 3d b2 38 f5 3d 59 59 48 be 2f d0 38 3c
       0.1048268 0.119737044 -0.19565333 0.011280104
0000c0 d4 33 0c be 8f 84 98 3d 67 42 bc bd b7 a9 67 bc
       -0.13691646 0.074471585 -0.09192353 -0.014139584
0000d0 70 5d fe 3d ad 95 3a 3d 6e 20 c8 3c 86 fb 2e be
       0.124201655 0.0455529 0.024429526 -0.17088136
0000e0 ea af f8 3d 4a ad 0c 3e 8f b8 8e bd 6c a3 4d 3c
       0.12142928 0.1373798 -0.069687955 0.01255117
0000f0 4f 31 fe bc b9 0e f8 bd b8 2f b3 3b 9e a2 ac 3d
       -0.031029372 -0.12112183 0.005468335 0.08429454
000100 7f 46 27 be be 74 2c be c0 32 f8 3d de 5b 30 be
       -0.16335486 -0.16841409 0.12119055 -0.17222545
000110 0e b0 f4 3d 0c 27 14 3e 49 99 05 3e 4b 26 f1 3d
       0.11947642 0.1446802 0.13046755 0.11774882
000120 1f 31 01 3e 52 2a aa bd e5 c6 a5 3c 31 80 f5 3d
       0.12616394 -0.08308853 0.020236442 0.11987341
000130 6d c8 b0 bd 35 a9 f7 bd 0c 1e 03 be de b6 37 be
       -0.08631978 -0.120928206 -0.1280443 -0.17940852
000140 6d ca 1e be 2e 03 ec 3d d5 c2 2c bb 8b d9 ca 3c
       -0.15506907 0.11524044 -0.0026361246 0.024761936
000150 78 e4 03 3e 29 83 0d be 50 8f c1 3d 82 98 2b bd
       0.12880123 -0.13819565 0.09451163 -0.04189349
000160 80 07 4c 3c 42 22 8f bd b5 ed 3a be 1c da 8e 3d
       0.01245296 -0.06988956 -0.1825474 0.06975195
000170 b3 83 20 be 8e fe 20 be 20 57 bf 3c 56 48 4f be
       -0.1567524 -0.15722105 0.023356974 -0.20242438
000180 13 49 2d 3d 09 d1 34 3e 63 7c ac bc 83 ae 18 3e
       0.042306017 0.17657866 -0.021055406 0.14910321
000190 de f5 cb bd 56 eb 04 be 9c a4 ab 3d b0 2f 28 be
       -0.09959005 -0.12980399 0.08381006 -0.16424441
0001a0 74 2c 94 bc cb 2d ff bd 8a 21 85 3d 96 8c da 3d
       -0.018087603 -0.12459906 0.06500538 0.10671346
0001b0 30 53 0c be 4d 6e 28 be 25 bb 17 bd 1c a6 07 bd
       -0.13703609 -0.16448326 -0.03704371 -0.0331174
0001c0 4d 70 38 bd 45 22 04 3d 72 dd 80 3d 9c d0 0f be
       -0.045028973 0.032259244 0.06292237 -0.14044422
0001d0 7c 46 f9 bd c2 4f d3 bd 1f 18 12 be b3 48 24 3e
       -0.12171647 -0.10317947 -0.14267014 0.16043358
0001e0 f9 be de 3d b4 3b d0 bd 30 d8 1c be 6c b3 0f be
       0.10876269 -0.101676375 -0.15316844 -0.14033288
0001f0 e7 08 3c be 45 91 00 3e b8 d1 33 bd 2e 48 65 bd
       -0.18362771 0.12555416 -0.043901175 -0.05597704
000200 4b 08 29 be 69 00 0f be dd 4d 1b be 47 8a e9 bd
       -0.1650707 -0.13965 -0.15166421 -0.114033274
000210 00 a5 5e 3d 69 0e 8e be a1 88 4a bd a0 c4 06 3c
       0.054356575 -0.2774537 -0.049446706 0.00822559
000220 46 9b c9 3c 98 47 d1 3c fa 24 a2 bd ae 61 3a be
       0.024610173 0.025546834 -0.07917209 -0.18201324
000230 47 6b d6 bd be 46 db 3d e0 f2 db 3b ef 30 47 3e
       -0.1046968 0.107068524 0.0067123026 0.1945226
000240 fc 34 1f be f2 c8 18 be be 87 07 3e 31 17 fe 3d
       -0.15547556 -0.14920405 0.13235375 0.12406767
000250 e4 37 af bd 93 f8 00 3d 61 1c 8f 3e af 24 b4 bb
       -0.08555582 0.03148706 0.2795134 -0.005497537
000260 ac 8a 48 be 9e 85 b4 3d 41 43 85 3d 36 ee 3f 3e
       -0.19584149 0.08814548 0.06506968 0.18743214
000270 69 05 9b 3d ec cb 33 3e a7 b7 51 3d db f2 14 3e
       0.07569391 0.17558259 0.051200535 0.14545767
000280 5e b8 e5 3d 08 f9 08 bd a9 01 30 be ea 9e 3a 3d
       0.11216806 -0.03344062 -0.17188133 0.04556171
000290 ab 47 cc 3d 34 1e 42 be 34 00 20 3e dc c3 84 3d
       0.09974607 -0.18956834 0.15625077 0.0648267
0002a0 39 74 08 3e a5 57 33 3e 6b f5 35 bd ac 8d b0 bd
       0.13325585 0.17513902 -0.044423502 -0.08620772
0002b0 9d 82 47 bb 18 f0 c1 bc ef db 55 3d 96 62 bb bb
       -0.0030442842 -0.023674056 0.0522117 -0.0057185395
0002c0 f8 3f 1b be 50 72 fd bd ce 21 77 3e aa 60 d8 3c
       -0.15161121 -0.12375319 0.24133989 0.02641328
0002d0 47 ce a3 39 e4 73 42 3e cb f9 57 be b4 cf 06 3e
       0.0003124347 0.18989521 -0.21091382 0.1316517
0002e0 95 e8 13 3e d4 20 e2 bd 30 15 43 3d a9 3a 55 3d
       0.14444192 -0.11041418 0.047627628 0.052057896
0002f0 f0 43 90 3e ee 9d 8e 3e 7c 74 af bc ef 02 8c 3d
       0.28176832 0.27854866 -0.021417849 0.06836497
000300 28 f2 d8 bd e0 bb 7d bc 89 86 02 3d f1 67 1b 3e
       -0.10593063 -0.015486687 0.031866584 0.15176369
000310 46 94 c7 3a c6 3b 8d bd f2 8e 21 3d 15 69 b1 bd
       0.0015226684 -0.068961665 0.039442964 -0.08662621
000320 78 0b 59 3e 6e d6 62 3c 69 9b 0a be 53 b6 d1 3c
       0.21195781 0.013845069 -0.13535847 0.025599634
000330 a1 56 16 be 63 b1 63 bd 86 66 ca bd 9e 6b 71 be
       -0.14681484 -0.05558909 -0.09882836 -0.23576209
000340 5d 14 69 3d ba 91 fa 3d d7 99 96 bb 25 af b9 3d
       0.056904186 0.122348264 -0.004595976 0.09066609
000350 45 96 de bc 20 62 5f be 5c be df bc 5b 99 82 bd
       -0.027171263 -0.21814775 -0.02731245 -0.063769065
000360 35 46 19 3e 6a 5f 88 bd dc 29 a5 bc de 2a 2d be
       0.14968188 -0.06658824 -0.020161562 -0.16910884
000370 7c ff d7 bd 0c ce 62 3d 1e 41 8c bd 44 1d b6 bd
       -0.10546777 0.055372283 -0.068483576 -0.08892301
000380 84 48 1f 3e 5e 09 b5 3d 63 70 22 be 86 ea 26 3d
       0.15555006 0.08839677 -0.15863185 0.040751003
000390 d2 b1 a3 bd c4 02 46 bb 24 ab e8 bd 09 13 6b 3d
       -0.07992901 -0.003021405 -0.113607675 0.0573912
0003a0 48 9f b5 3d 80 9b 11 3c bd 47 2c 3e 61 39 0e 3e
       0.08868271 0.008887172 0.16824241 0.13889076
0003b0 b8 4b b6 3c 9c 91 f1 bd 62 dc 1f be 75 60 77 3e
       0.022252902 -0.11795351 -0.15611413 0.24157889
0003c0 e3 ee 0b 3c e6 f9 2d 3e ed 58 1e 3e 57 25 33 3d
       0.008540842 0.1698986 0.1546361 0.043736782
0003d0 92 db 2c 3e 6d ed c9 bb 85 7e 3a 3d 63 da 08 3e
       0.16880634 -0.0061623366 0.045530815 0.13364558
0003e0 5a da 38 be 8f e6 c2 3d fb 3d 26 be 9e 76 29 3e
       -0.18052045 0.09516632 -0.16234581 0.16549155
0003f0 0a 3a 71 3d 70 5c 01 be be 69 ad 3d bb b4 20 3e
       0.05889324 -0.12632918 0.08467434 0.15693943

arith.constant2 f4 [7]
000000 1a ca 9c bb e7 39 88 3d 08 0d 5e 3c 96 83 6c bd
       -0.0047848346 0.06651669 0.013552912 -0.057742678
000010 44 04 91 bc ee 79 8b bb ae 06 c1 bc
       -0.01770223 -0.0042564785 -0.023562755

sequential_1/dense_1_2/BiasAdd/ReadVariableOp f4 [64]
000000 2b f6 86 bc 80 c3 41 3d d4 2b 30 bd e8 00 27 3c
       -0.016474804 0.047305584 -0.043010548 0.010193087
000010 b8 94 dc ba 4f 87 7c bc 48 71 e1 3c 91 78 2f 3d
       -0.001682899 -0.015413119 0.027519837 0.04283959
000020 98 3e 65 3d d0 30 51 bc a7 08 17 3d dd 2c 7c 3c
       0.055967897 -0.012767985 0.036873486 0.015391556
000030 00 ee 23 3d 59 a5 78 bc 23 d0 6f bc 04 35 85 3d
       0.040021896 -0.015176141 -0.014637026 0.065042526
000040 84 ef a3 3d 41 42 2a 3d 77 3e 57 bb cd 40 9e 3d
       0.08004668 0.04156709 -0.0032843628 0.077272035
000050 8b f8 f5 3c 29 f6 de 3b a9 d2 a7 3c 2c 27 c7 3d
       0.030025741 0.006804247 0.020486193 0.09724268
000060 cf bd 1d 3d 65 c9 4a 3d e1 f2 6e 3d 44 af e8 3b
       0.038511094 0.04950847 0.058337096 0.0071009714
000070 bc ad e8 bc e8 d7 f9 3c a4 91 28 3d 2e 59 c5 3d
       -0.028403156 0.03049846 0.04115452 0.0963615
000080 82 67 8b 3d 4e d7 c4 3b 35 db 0e 3d 57 92 dc 3c
       0.06806852 0.0060071116 0.03487702 0.026925249
000090 11 ff 1e 3d 77 6b 41 3d 76 8a c7 3d 52 9a 98 3d
       0.03881747 0.047221627 0.09743206 0.07451309
0000a0 bd 2e a5 bb 07 c9 21 bc 14 4a d4 3c ba ba a8 bb
       -0.005040972 -0.009874589 0.02591423 -0.0051492127
0000b0 05 a8 70 3d 40 1a 94 b9 2e 2c be 3c 24 d8 a7 3d
       0.058753986 -0.00028248318 0.023214426 0.081955224
0000c0 a3 47 4c 3d f1 b9 a5 3d f8 96 01 bd c2 33 4f 3c
       0.049873006 0.08092106 -0.031638116 0.012646617
0000d0 28 df 80 3d 87 18 e1 3c 50 b8 2e 3c c0 62 16 3a
       0.06292564 0.027477516 0.010664061 0.0005736761
0000e0 a0 8a 30 bc dd 88 00 3c 0a e2 63 3c c0 f4 bf bc
       -0.010775238 0.007845131 0.013908872 -0.023432136
0000f0 df 7d 07 3d a1 cb b1 3c 8f 02 04 bd f5 da 35 3d
       0.033079024 0.021703543 -0.032229003 0.044398267

sequential_1/dense_1/BiasAdd/ReadVariableOp f4 [128]
000000 00 00 00 00 00 00 00 00 eb a9 4d 3c 0d 82 1d bd
       0.0 0.0 0.012552719 -0.038454104
000010 00 00 00 00 41 99 c4 3c 55 de 64 bb 00 00 00 00
       0.0 0.023998858 -0.003492256 0.0
000020 cf 8d e1 bb 61 81 d9 bb c1 7c 58 bc 74 7a 30 bc
       -0.00688336 -0.0066377376 -0.013213337 -0.010771383
000030 b6 52 99 3c 56 51 f0 3b 00 00 00 00 0a 54 95 3c
       0.018716197 0.0073339147 0.0 0.01822855
000040 67 ae e4 bc 18 a7 85 bc 32 0e 10 bc b1 5b 55 3c
       -0.027915193 -0.016315028 -0.008792447 0.013022349
000050 26 2e 12 bc 2c 85 05 bc bb f2 2b 3d d0 00 b5 bb
       -0.008922135 -0.008149426 0.041979533 -0.0055237785
000060 ee af 1d 3d 9b 65 dd bc 5b 6b ab 3c f5 19 43 3b
       0.038497858 -0.027025988 0.020925215 0.002977011
000070 98 2a 81 3b 40 ea 1d 3d 1f 5c 46 3d 00 00 00 00
       0.003941845 0.038553476 0.048427697 0.0
000080 00 00 00 00 00 00 00 00 43 be c4 bb 28 0d e6 3b
       0.0 0.0 -0.0060041263 0.0070206113
000090 a7 ad a1 bc 04 16 43 3d c3 23 ae bc a8 a4 b4 bb
       -0.019736124 0.047628418 -0.021257287 -0.0055127926
0000a0 00 00 00 00 d0 03 1d 3b 30 30 67 3d 95 b8 51 3b
       0.0 0.0023958571 0.05644244 0.0032000889
0000b0 4f d6 81 3c 00 00 00 00 91 87 ad 3c 96 f7 1a 3d
       0.01584926 0.0 0.021182807 0.037833773
0000c0 69 18 21 bc c0 64 c7 bc e4 89 36 3d 43 96 bc 3c
       -0.00983248 -0.024340034 0.044565096 0.02302087
0000d0 43 78 47 bb e0 48 b1 3c 9f 70 8b bc d3 81 78 3b
       -0.0030436672 0.021641195 -0.017021475 0.0037919178
0000e0 00 00 00 00 74 90 d8 3c 00 00 00 00 d6 1f 6e 3c
       0.0 0.026436068 0.0 0.0145339575
0000f0 f8 d2 0f 3c 3c 1c 91 3b d9 ba 50 3c 59 28 e1 3c
       0.008778326 0.0044284146 0.01273986 0.02748506
000100 f9 c7 04 bc 00 00 00 00 a4 3f 91 bc 4b 3c 6a bc
       -0.008104318 0.0 -0.017730542 -0.0142966015
000110 e2 50 df bc bd 11 82 bc c5 13 bf bc bc aa 88 bc
       -0.027260248 -0.015877599 -0.023324857 -0.016682975
000120 52 98 2c bd 50 ac 8b 3c 05 44 8c bc b3 b1 19 3c
       -0.04213745 0.017049938 -0.017122278 0.009380746
000130 00 00 00 00 e0 82 c5 3b 58 b3 d2 3c 7b 8e c8 bb
       0.0 0.0060275644 0.025720283 -0.0061205006
000140 31 01 26 bc 00 00 00 00 6b 81 3b bc eb 18 12 bd
       -0.01013212 0.0 -0.01144443 -0.035668295
000150 b9 a7 25 3b d5 8d 8f 3c fa a3 eb bb 9c fe 83 3a
       0.0025276972 0.017523685 -0.0071911784 0.0010070386
000160 00 00 00 00 f6 6d b8 bc 2e 66 8d 3c a1 5d 28 3c
       0.0 -0.022513371 0.017260637 0.010276229
000170 00 00 00 00 90 a8 92 3c d0 dd af 3c 75 9e 26 3c
       0.0 0.017902642 0.021468073 0.010169615
000180 1b c5 c4 bb 5a 49 a7 bc 2f af 55 3c 75 e0 b3 bc
       -0.006004942 -0.020420719 0.013042255 -0.021957615
000190 00 00 00 00 7a 9c 2f 3d 33 9c 80 3c 69 d5 34 bb
       0.0 0.042873837 0.015699482 -0.0027593023
0001a0 51 c2 ee 3c 00 00 00 00 b2 2f 89 bc fb 1f 51 3c
       0.029145392 0.0 -0.016746376 0.012763972
0001b0 00 00 00 00 82 0c 27 bc b2 b0 c3 bb 22 60 32 bb
       0.0 -0.010195853 -0.0059719915 -0.0027217944
0001c0 ae 4b 34 3d 84 95 5b 3c 28 33 ab bb bb 2d ed ba
       0.044017486 0.0134023465 -0.005224604 -0.0018095294
0001d0 68 b6 28 bc c3 4d 01 bd 1d 99 ef bb aa da 90 3c
       -0.010297395 -0.0315683 -0.0073119537 0.017682392
0001e0 23 4d 18 3c fd bd a0 bc c5 d8 2e bc 15 60 e4 3c
       0.009295735 -0.019621843 -0.010671799 0.027877847
0001f0 da 3f 71 3d 00 00 00 00 ab 1e b6 bb 00 00 00 00
       0.058898784 0.0 -0.005557855 0.0

sequential_1/dense_1/MatMul f4 [128, 99]
000000 f6 f2 95 3d 7c e1 0b be 00 fe 55 ba 38 c8 90 bc
       0.07321732 -0.13660234 -0.0008163154 -0.017673597
000010 10 44 7d 3c 0c 06 0b be 94 b9 fd 3d c3 00 12 be
       0.015458122 -0.13576525 0.12388912 -0.14258103
000020 40 1b c7 3b fb e7 fd bd ec e5 69 3d 4c 71 f1 3d
       0.0060762465 -0.123977624 0.057104036 0.11789188
000030 b7 92 22 be 04 1e ff 3d 00 82 18 be ee 85 d0 bd
       -0.1587628 0.12456897 -0.14893341 -0.10181795
000040 10 08 05 bd e0 35 74 bd 26 cf fa bd 80 e0 5e bb
       -0.032478392 -0.05962169 -0.12246542 -0.0034008324
000050 00 74 8c 3a 5a e8 91 3d f4 32 ef 3d 7c 80 da 3d
       0.0010715723 0.07124396 0.116796404 0.10669038
000060 5f 0f 25 be 38 a6 04 3e 0c 05 06 3e 32 0b 00 3e
       -0.16119145 0.12954032 0.13087863 0.1250427
000070 30 8c 63 bd e0 0c 84 3d 70 f6 4d 3c b0 24 be 3d
       -0.055553615 0.06447768 0.012570962 0.09284341
000080 b2 30 5b bd c5 f9 17 be 50 18 17 3d 16 ae 6f bd
       -0.053513236 -0.14841373 0.03688842 -0.05851563
000090 40 86 77 bd 98 27 c7 3d 63 37 22 be 8e 86 70 bd
       -0.060430765 0.09724349 -0.15841441 -0.05872207
0000a0 9c c2 08 3e 0a a1 75 bd d8 bb 8d bc 36 56 53 bd
       0.13355488 -0.059968032 -0.017301485 -0.05159589
0000b0 90 69 bf 3d b4 7d ee 3d a6 97 d0 bd 84 ab 08 bd
       0.09346306 0.1164507 -0.10185175 -0.033366695
0000c0 54 61 bf bd 28 6c e0 3d 61 1c 82 bd 52 8a 84 3d
       -0.09344736 0.10958129 -0.06353069 0.06471695
0000d0 33 03 91 bd 24 8c 12 3e 48 ed e4 3d 98 ae 1e 3e
       -0.07080688 0.14311272 0.1117807 0.1549629
0000e0 cc af a8 3d 90 df 08 bc bc 27 5c bd 7e 82 f7 bd
       0.082366556 -0.008354083 -0.05374883 -0.12085436
0000f0 f2 0d e6 bd c6 91 e7 bd 7c dd 3b 3d 2c c6 22 bd
       -0.112331286 -0.11307101 0.04586552 -0.039739773
000100 3c ca 6a 3d 70 52 db 3c 84 91 43 bd c0 7c 8a bd
       0.057321772 0.026772708 -0.047746196 -0.067620754
000110 f0 5b 19 be 23 0c d3 bd b6 bf 96 3d 00 b6 60 bb
       -0.14976478 -0.10305049 0.07360785 -0.0034288168
000120 27 6d f8 bd 80 fc ba 3c c0 1d a3 3c a6 7f cf bd
       -0.12130194 0.02282548 0.019911647 -0.10131769
000130 76 d8 09 be 1c 5c 27 bd 42 c0 02 3e 14 68 18 3d
       -0.1346148 -0.040859327 0.12768653 0.03720863
000140 80 d4 0c 3e 18 ef c4 3d e7 e7 bd bd ea db 89 3d
       0.13752937 0.09615916 -0.092727475 0.067313984
000150 02 3d 02 be 40 bd ef 3c 70 89 f4 bc c2 e6 0b be
       -0.12718585 0.029265046 -0.029850692 -0.13662246
000160 42 2d fe bd 00 45 4c 3d 40 c3 a0 bc b2 d0 6c bd
       -0.12410976 0.04987049 -0.019624352 -0.057816215
000170 d7 20 1e be 66 ca 1e bd d9 0b 09 be ca 45 7b bd
       -0.15442215 -0.03876724 -0.13383426 -0.061345853
000180 ea 18 08 3e e4 d0 03 3e 24 2d 3a bd 52 46 20 3e
       0.13290754 0.12872654 -0.045453206 0.15651825
000190 d8 ab cd 3d e0 b0 94 3c 10 39 b4 3c 52 c6 23 3e
       0.10042542 0.018150747 0.021999866 0.15993622
0001a0 c4 2f 37 bd be 86 e0 bd ca 63 21 be 9c fd 1e 3d
       -0.044723287 -0.109632 -0.15760723 0.03881608
0001b0 d0 80 23 be b5 85 b6 bd 30 86 01 3c 08 ec 0c be
       -0.15967107 -0.08912221 0.007905528 -0.13761914
0001c0 c8 9e e0 bd 1b d8 13 be 34 40 bf 3d ea 32 a1 bd
       -0.10967785 -0.14437906 0.09338418 -0.07871039
0001d0 35 da ab bd bc 39 0b be a0 24 fa bd 54 af 6c 3d
       -0.08391229 -0.13596243 -0.12214017 0.057784393
0001e0 96 3d 92 bd 54 11 ba 3d a6 76 cf bd ba 39 8c bd
       -0.07140653 0.09085336 -0.10130052 -0.06846948
0001f0 38 c3 9e bc fa ab 15 be 38 c3 ed bc 70 2a da bd
       -0.019380197 -0.14616385 -0.029023752 -0.106526256
000200 ac ec f1 3d 12 dc f6 bd 2a a1 89 3d b6 07 82 3d
       0.1181272 -0.12053694 0.06720193 0.06349127
000210 ac 62 22 3d 78 4e ce bd f4 70 63 bd 14 02 c2 bd
       0.039644882 -0.100735605 -0.055527642 -0.094730526
000220 28 66 dd 3c f2 18 95 bd 14 2a 19 be 80 a2 d7 bb
       0.027026251 -0.072801486 -0.14957458 -0.006580651
000230 88 95 0e 3e 50 bc 91 3c c0 32 56 bc c8 f2 d5 3c
       0.13924229 0.01778999 -0.013073623 0.026116744
000240 f0 be ff 3c a0 07 cb 3b 03 48 03 be e6 e3 f8 bd
       0.031218976 0.0061959773 -0.12820439 -0.12152843
000250 80 b6 89 3b 92 cc df bd 78 82 07 be 94 ec 18 3d
       0.004202664 -0.109276906 -0.13233364 0.037334993
000260 28 9a d6 3c 04 36 5f 3d c0 b3 9b 3c d0 98 f2 3d
       0.026196554 0.054494873 0.01900661 0.11845553
000270 82 da ff bd 72 f6 06 3e c0 ac 88 3d ac d1 0c bd
       -0.12492849 0.13179949 0.066735744 -0.034379646
000280 2e 20 1a be aa dd a0 bd da 92 0e 3e 94 80 5a 3d
       -0.15051338 -0.07854779 0.13923207 0.053345278
000290 16 0e 03 3e 4c 21 21 bd 1c cc 1b 3e 7a f9 25 3e
       0.12798342 -0.039338395 0.1521458 0.16208449
0002a0 ff 7b 9c bd 20 5f ca 3c 80 60 1b bb 1c c0 e2 bd
       -0.07640838 0.024703562 -0.0023708642 -0.11071798
0002b0 20 ba 42 3c 30 9c 86 3c 38 89 9b 3c ac 0e d2 3d
       0.011885196 0.016431898 0.01898633 0.10256705
0002c0 4c 4c cd bd 4e 5d 5e bd 1d e5 04 be 45 0b 85 bd
       -0.10024318 -0.0542882 -0.12978025 -0.0649629
0002d0 92 ab 0a 3e c0 ba 35 bc 1a 49 d0 bd ac 0f 40 3d
       0.13542011 -0.011091888 -0.10170193 0.046889946
0002e0 70 f6 d0 3d 80 52 82 3a 1f 32 c8 bd dc b9 09 be
       0.10203254 0.00099428 -0.09775185 -0.13449806
0002f0 80 7e de 3c 0f 6d 20 be e2 9e 35 bd 20 5e 06 be
       0.02715993 -0.15666603 -0.044340976 -0.13121843
000300 b4 8e 0c 3e 80 9d 0c bb 34 f7 6d bd 70 5a 09 3c
       0.13726312 -0.0021456182 -0.05809708 0.008383378
000310 ec 48 75 3d c4 64 04 3e c4 11 b6 3d 7c 53 d2 3d
       0.059883997 0.12929064 0.08890107 0.1026983
000320 9b 94 24 bd bd 12 12 3e 96 37 ab 3b a7 ab 0d 3d
       -0.040180784 0.1426496 0.005225132 0.03458753
000330 b6 4f 3e 3e 0e 15 80 3a 95 cc a7 3d 4a 88 10 3d
       0.18585095 0.00097719 0.08193318 0.035286225
000340 49 a5 b3 3c c2 6a 20 bc e6 ab aa bd 00 ce ec 3c
       0.0219294 -0.009791078 -0.08333568 0.028906822
000350 dc 4f 41 3e 52 89 f9 bc 39 ef 7f 3d 31 5e ec 3d
       0.1887812 -0.030460987 0.062484 0.11541403
000360 e9 13 0b bd 40 9e 07 3d b1 64 25 3c 20 2d 13 3e
       -0.033954535 0.033109903 0.0100948075 0.14372683
000370 28 0b 96 3d fd 35 b4 3b 6c 82 4b 3e ff 18 2f 3e
       0.07326347 0.0054996 0.19873971 0.17099379
000380 f9 64 7f 3d 03 1f 00 bc a4 8f 39 3e ab 5b ce bc
       0.062352154 -0.007819894 0.18121201 -0.025190195
000390 b6 21 2d 3e 8f d3 8e 3d 2b b0 83 bd 81 fb 8f bd
       0.16907391 0.06973945 -0.06430086 -0.070303924
0003a0 9e a3 6c 3d e9 e7 10 3e 3a 55 1f 3e c2 0d d9 bc
       0.057773225 0.14150967 0.15559855 -0.026495818
0003b0 73 60 47 bd 90 b5 09 bd a4 ef e0 3d 09 64 88 3d
       -0.048675966 -0.033620417 0.10983208 0.06659705
0003c0 60 4f 3d 3c 2a 58 24 be fe f4 cc bd ac c8 14 3c
       0.011554569 -0.16049257 -0.10007666 0.009081047
0003d0 9b 12 8a 3d 56 03 ef bd 4c d1 94 3d 27 57 ce 3b
       0.0674183 -0.11670558 0.07266483 0.0062970105
0003e0 42 82 9b bd 83 35 38 be fc b8 15 3e 28 0b 30 3c
       -0.07593204 -0.17989163 0.14621347 0.010744847
0003f0 78 a9 70 3e 38 3a 5e bb a4 12 86 3b eb a4 7d 3d
       0.23502147 -0.0033909213 0.0040915776 0.061924856
